tensorflow/lite/micro/examples/hello_world/model_quant.tflite (tflite, 3024 bytes, 3 tensors)

sequential/dense_2/MatMul i1 [1, 16] scale=0.010664775 zero_point=0
000000 81 fc 40 e4 ef dc 24 0a 1b 57 3c d4 e9 30 3c 55
       -1.3544264 -0.0426591 0.6825456 -0.2986137 -0.18130118 -0.3839319 0.3839319 0.10664775 0.28794894 0.9278354 0.6398865 -0.4692501 -0.24528983 0.5119092 0.6398865 0.9065059

sequential/dense_1/MatMul i1 [16, 16] scale=0.009887555 zero_point=0
000000 e6 15 f8 f1 27 d6 1e ea ea 29 2f 1a de ff 12 81
       -0.2570764 0.20763865 -0.07910044 -0.14831331 0.38561463 -0.4152773 0.29662663 -0.2175262 -0.2175262 0.40538976 0.46471506 0.2570764 -0.33617687 -0.009887555 0.17797598 -1.2557194
000010 f9 26 01 16 0e e5 e3 1e 29 dc f1 e3 e4 22 f7 27
       -0.06921288 0.3757271 0.009887555 0.2175262 0.13842577 -0.266964 -0.28673908 0.29662663 0.40538976 -0.35595196 -0.14831331 -0.28673908 -0.27685153 0.33617687 -0.08898799 0.38561463
000020 da 18 ad 13 e5 e1 1a 01 d7 1e 1a 26 f2 09 eb 03
       -0.3757271 0.23730132 -0.820667 0.18786354 -0.266964 -0.3065142 0.2570764 0.009887555 -0.40538976 0.29662663 0.2570764 0.3757271 -0.13842577 0.08898799 -0.20763865 0.029662665
000030 dd f8 f4 03 e9 2b d1 fd 05 ee 12 10 22 11 e7 11
       -0.34606442 -0.07910044 -0.11865066 0.029662665 -0.22741376 0.42516485 -0.46471506 -0.029662665 0.049437772 -0.17797598 0.17797598 0.15820087 0.33617687 0.16808844 -0.24718887 0.16808844
000040 f3 10 ed 13 08 2b d7 d7 fb 05 d7 1c 0d f7 23 fa
       -0.1285382 0.15820087 -0.18786354 0.18786354 0.07910044 0.42516485 -0.40538976 -0.40538976 -0.049437772 0.049437772 -0.40538976 0.27685153 0.1285382 -0.08898799 0.34606442 -0.05932533
000050 f9 da aa f0 2a 05 f5 ec 25 1e 28 06 f4 e8 fc 28
       -0.06921288 -0.3757271 -0.8503297 -0.15820087 0.4152773 0.049437772 -0.1087631 -0.19775109 0.3658395 0.29662663 0.39550218 0.05932533 -0.11865066 -0.23730132 -0.03955022 0.39550218
000060 0c 12 13 fa e1 df 11 0f 16 f3 d8 f5 1a e8 e1 d5
       0.11865066 0.17797598 0.18786354 -0.05932533 -0.3065142 -0.3262893 0.16808844 0.14831331 0.2175262 -0.1285382 -0.39550218 -0.1087631 0.2570764 -0.23730132 -0.3065142 -0.42516485
000070 d9 04 07 e8 f3 27 1d 28 ef e0 dd ef 19 08 29 fd
       -0.38561463 0.03955022 0.06921288 -0.23730132 -0.1285382 0.38561463 0.28673908 0.39550218 -0.16808844 -0.31640175 -0.34606442 -0.16808844 0.24718887 0.07910044 0.40538976 -0.029662665
000080 27 e1 28 01 12 dd 26 20 29 e4 16 f1 08 0d f1 e1
       0.38561463 -0.3065142 0.39550218 0.009887555 0.17797598 -0.34606442 0.3757271 0.31640175 0.40538976 -0.27685153 0.2175262 -0.14831331 0.07910044 0.1285382 -0.14831331 -0.3065142
000090 1f 2b 57 d6 20 ed e7 0e 0b 08 ae da 08 fb 36 0c
       0.3065142 0.42516485 0.8602173 -0.4152773 0.31640175 -0.18786354 -0.24718887 0.13842577 0.1087631 0.07910044 -0.8107795 -0.3757271 0.07910044 -0.049437772 0.533928 0.11865066
0000a0 d4 f7 d4 0b e1 0a 20 09 07 38 29 e6 e6 e4 e9 e5
       -0.4350524 -0.08898799 -0.4350524 0.1087631 -0.3065142 0.098875545 0.31640175 0.08898799 0.06921288 0.55370307 0.40538976 -0.2570764 -0.2570764 -0.27685153 -0.22741376 -0.266964
0000b0 25 eb 0a fd fd 0b ed e7 0e fb ed d8 f4 f1 f2 f0
       0.3658395 -0.20763865 0.098875545 -0.029662665 -0.029662665 0.1087631 -0.18786354 -0.24718887 0.13842577 -0.049437772 -0.18786354 -0.39550218 -0.11865066 -0.14831331 -0.13842577 -0.15820087
0000c0 f5 0f b1 f4 fc e8 15 eb fd 2b 49 13 f2 22 df 2a
       -0.1087631 0.14831331 -0.78111684 -0.11865066 -0.03955022 -0.23730132 0.20763865 -0.20763865 -0.029662665 0.42516485 0.7217915 0.18786354 -0.13842577 0.33617687 -0.3262893 0.4152773
0000d0 f9 e9 f2 11 11 2b 0a 26 0d e7 de 12 26 e2 fd e6
       -0.06921288 -0.22741376 -0.13842577 0.16808844 0.16808844 0.42516485 0.098875545 0.3757271 0.1285382 -0.24718887 -0.33617687 0.17797598 0.3757271 -0.29662663 -0.029662665 -0.2570764
0000e0 e9 fe b7 fc 01 f3 09 15 13 0d 03 dc 03 e5 ec 15
       -0.22741376 -0.01977511 -0.7217915 -0.03955022 0.009887555 -0.1285382 0.08898799 0.20763865 0.18786354 0.1285382 0.029662665 -0.35595196 0.029662665 -0.266964 -0.19775109 0.20763865
0000f0 db 16 e1 e5 d7 19 12 f2 ef 15 28 21 e1 ef e2 01
       -0.3658395 0.2175262 -0.3065142 -0.266964 -0.40538976 0.24718887 0.17797598 -0.13842577 -0.16808844 0.20763865 0.39550218 0.3262893 -0.3065142 -0.16808844 -0.29662663 0.009887555

sequential/dense/MatMul i1 [16, 1] scale=0.004457802 zero_point=0
000000 6d ca 46 d2 e1 93 12 a3 dc 3e 05 db 8d 9d 5c 7f
       0.48590043 -0.24072132 0.31204614 -0.20505889 -0.13819186 -0.48590043 0.080240436 -0.41457558 -0.16048087 0.27638373 0.02228901 -0.16493867 -0.5126472 -0.44132242 0.41011778 0.56614083
