tensorflow/lite/micro/examples/hello_world/model_no_quant.tflite (tflite, 3164 bytes, 5 tensors)

sequential/dense_1/BiasAdd/ReadVariableOp f4 [16]
0.4570234 -0.01775072 0.43043858 -0.01640716 -0.013707839 0.339576 0.0 -0.005737698
-0.11048408 -0.69535077 0.4287384 0.0 0.32378477 0.0 0.25401855 0.32932523
00000000: f9fe e93e f569 91bc 7262 dc3e 4f68 86bc
00000010: d896 60bc e8dc ad3e 0000 0000 4d03 bcbb
00000020: 7a45 e2bd 8202 32bf 9983 db3e 0000 0000
00000030: 1ec7 a53e 0000 0000 b80e 823e 519d a83e

sequential/dense/BiasAdd/ReadVariableOp f4 [16]
-0.45543244 0.0 -0.8141053 0.0 0.0 0.0 0.2921526 0.0
0.0 0.6485804 1.1671398 0.0 0.0 0.0 -0.4741076 0.24008894
00000000: 712e e9be 0000 0000 3469 50bf 0000 0000
00000010: 0000 0000 0000 0000 0795 953e 0000 0000
00000020: 0000 0000 5d09 263f d664 953f 0000 0000
00000030: 0000 0000 0000 0000 3bbe f2be e0d9 753e

sequential/dense/MatMul f4 [16, 1]
0.48511508 -0.24256447 0.31326032 -0.20682529 -0.13638031 -0.48582286 0.07994559 -0.4138878
-0.15885109 0.27677202 0.020319695 -0.16445485 -0.5121981 -0.43974453 0.41022858 0.56614083
00000000: 0161 f83e d262 78be a863 a03e 02ca 53be
00000010: 48a7 0bbe c6bd f8be 83ba a33d 1ae9 d3be
00000020: dca9 22be 10b5 8d3e 7d75 a63c da66 28be
00000030: 6a1f 03bf 3226 e1be 7b09 d23e 9bee 103f

sequential/dense_1/MatMul f4 [16, 16]
-0.25765923 0.21000794 -0.081475526 -0.14944896 0.38072756 -0.41807854 0.30021086 -0.21686675
-0.22069968 0.40828145 0.4688372 0.25669608 -0.3402304 -0.0083974 0.17400247 -1.2557194
-0.07207424 0.37372193 0.009945121 0.2132074 0.13622257 -0.26846483 -0.28184974 0.29708198
0.40255752 -0.3599587 -0.1461244 -0.29007208 -0.27444893 0.33188936 -0.08766371 0.38305894
-0.37431437 0.23857561 -0.81693375 0.19184223 -0.27021202 -0.30194688 0.25987145 0.0068018436
-0.40251663 0.29274574 0.25582054 0.373112 -0.13659528 0.092852384 -0.21022072 0.025420701
-0.34395513 -0.075531185 -0.12281442 0.031914473 -0.2226896 0.42139485 -0.4643282 -0.027363002
0.053283453 -0.1771835 0.17664763 0.154995 0.33152637 0.16771159 -0.2509189 0.1723836
-0.12663399 0.16246739 -0.18741164 0.19110778 0.07974723 0.42626134 -0.40115425 -0.40747786
-0.04707873 0.05172128 -0.40316176 0.2776803 0.12944075 -0.088570595 0.34504473 -0.05843153
-0.06531965 -0.37114707 -0.84647256 -0.15583208 0.4178473 0.04764375 -0.10812517 -0.19714876
0.365288 0.29347578 0.39915332 0.060361862 -0.11750403 -0.23934668 -0.042768132 0.3947993
0.11525199 0.17410812 0.18956569 -0.06247011 -0.3114295 -0.32276517 0.16677222 0.14933726
0.21387348 -0.12363207 -0.39852926 -0.107459575 0.25847933 -0.24061702 -0.3024704 -0.42461374
-0.38175565 0.042318493 0.07036176 -0.23992296 -0.1275419 0.38155535 0.28264514 0.3976163
-0.1723502 -0.31823832 -0.34182924 -0.16427407 0.2487779 0.0815641 0.4006345 -0.03244675
0.38405845 -0.30656812 0.39726007 0.006969303 0.1789914 -0.34529412 0.37318027 0.31944492
0.4098682 -0.2747984 0.21566531 -0.14562118 0.083812565 0.13104305 -0.14946586 -0.30560464
0.30979255 0.42595783 0.8598174 -0.41409045 0.31631997 -0.19217081 -0.24526843 0.1367723
0.10749343 0.079596855 -0.81032926 -0.37479198 0.075318485 -0.049249828 0.5367311 0.11893289
-0.43915758 -0.088486135 -0.43421856 0.10648039 -0.30234486 0.097328514 0.3159225 0.084305614
0.06771359 0.55028087 0.40284777 -0.25581133 -0.25403252 -0.2786503 -0.22898708 -0.26384985
0.3658215 -0.21218355 0.10105273 -0.028740823 -0.032285392 0.11081728 -0.19215967 -0.2445092
0.1358845 -0.05280885 -0.18537939 -0.39886394 -0.118456304 -0.15294513 -0.14160916 -0.15826562
-0.11029132 0.14644763 -0.78542536 -0.12333557 -0.043581843 -0.23622528 0.2082694 -0.20578887
-0.033667237 0.42237213 0.71998936 0.19277123 -0.13964039 0.33845028 -0.3246422 0.41837883
-0.06514707 -0.23138309 -0.14244694 0.17214766 0.16700175 0.43009892 0.09480432 0.3785418
0.12521055 -0.24472694 -0.3377058 0.175455 0.37905273 -0.30053756 -0.02927351 -0.2547679
-0.23137268 -0.022832483 -0.7173409 -0.03467506 0.008163571 -0.12445673 0.09063434 0.20785454
0.19165042 0.12738794 0.025486432 -0.35469025 0.034038693 -0.26722658 -0.19861457 0.20732711
-0.36530143 0.21472082 -0.3029494 -0.2629289 -0.40474308 0.24604407 0.18178383 -0.13954738
-0.1715366 0.20665337 0.39747605 0.3265479 -0.305312 -0.16497713 -0.29791152 0.013148065
00000000: e9eb 83be 520c 573e a4dc a6bd 2609 19be
00000010: b9ee c23e 640e d6be 3db5 993e 5112 5ebe
00000020: 19ff 61be 440a d13e 6e0b f03e ab6d 833e
00000030: ae32 aebe 4095 09bc b42d 323e 6abb a0bf
00000040: a99b 93bd 7b58 bf3e dcf0 223c 0a53 5a3e
00000050: ee7d 0b3e 3974 89be 9c4e 90be 211b 983e
00000060: 051c ce3e 824c b8be a2a1 15be 5484 94be
00000070: 9284 8cbe 67ed a93e 0889 b3bd 4d20 c43e
00000080: 22a6 bfbe 2a4d 743e 9222 51bf 4a72 443e
00000090: 3b59 8abe c898 9abe df0d 853e 00e2 de3b
000000a0: a916 cebe c5e2 953e e9fa 823e 8908 bf3e
000000b0: a2df 0bbe 6429 be3d 1a44 57be 133f d03c
000000c0: e31a b0be 18b0 9abd 2086 fbbd c0b8 023d
000000d0: be08 64be 11c1 d73e 6dbc edbe 6028 e0bc
000000e0: c03f 5a3d 976f 35be 1ee3 343e 02b7 1e3e
000000f0: d3bd a93e 96bc 2b3e 7178 80be 5485 303e
00000100: 57ac 01be da5d 263e d6e8 3fbe c2b1 433e
00000110: 8452 a33d ed3e da3e 1764 cdbe f0a0 d0be
00000120: a0d5 40bd b1d9 533d 386b cebe 1d2c 8e3e
00000130: 1e8c 043e 8064 b5bd b4a9 b03e e655 6fbd
00000140: 4fc6 85bd fd06 bebe 6db2 58bf 7292 1fbe
00000150: 15f0 d53e 1826 433d bb70 ddbd 5de1 49be
00000160: 0707 bb3e 7542 963e d35d cc3e 003e 773d
00000170: f4a5 f0bd 4c17 75be a32d 2fbd 2223 ca3e
00000180: 3c09 ec3d 6649 323e 821d 423e a8e0 7fbd
00000190: b073 9fbe 7a41 a5be 56c6 2a3e deeb 183e
000001a0: a601 5b3e d032 fdbd 070c ccbe c413 dcbd
000001b0: 6757 843e 4f64 76be 66dd 9abe f966 d9be
000001c0: 7a75 c3be 2856 2d3d d419 903d 5dae 75be
000001d0: 589a 02be 395b c33e ddb6 903e 5d94 cb3e
000001e0: 927c 30be 22f0 a2be 3e04 afbe 7637 28be
000001f0: a2bf 7e3e 140b a73d f71f cd3e e2e6 04bd
00000200: 4fa3 c43e 7ff6 9cbe ac65 cb3e c05e e43b
00000210: 8649 373e 64ca b0be 7c11 bf3e 498e a33e
00000220: 3fda d13e 60b2 8cbe 5ed7 5c3e b81d 15be
00000230: eca5 ab3d 2630 063e 940d 19be 3678 9cbe
00000240: 219d 9e3e 2517 da3e fe1c 5c3f aa03 d4be
00000250: b1f4 a13e 6dc8 44be a627 7bbe 0a0e 0c3e
00000260: 8425 dc3d ad03 a33d bd71 4fbf bce4 bfbe
00000270: 9440 9a3d 30ba 49bd 3667 093f 1693 f33d
00000280: 43d9 e0be 3838 b5bd e551 debe 6412 da3d
00000290: f2cc 9abe 2c54 c73d 98c0 a13e 6ca8 ac3d
000002a0: 6cad 8a3d 35df 0c3f 1042 ce3e b4f9 82be
000002b0: 8d10 82be 41ab 8ebe 977b 6abe 5417 87be
000002c0: f54c bb3e a546 59be bcf4 ce3d e071 ebbc
000002d0: b03d 04bd 2cf4 e23d 81c5 44be 9f60 7abe
000002e0: 4e25 0b3e 184e 58bd 18d4 3dbe e537 ccbe
000002f0: 3899 f2bd a69d 1cbe fe01 11be 6210 22be
00000300: 6ae0 e1bd 5ef6 153e a311 49bf 5c97 fcbd
00000310: e082 32bd 0ae5 71be 9344 553e 51ba 52be
00000320: a8e6 09bd 2941 d83e 3951 383f d265 453e
00000330: e4fd 0ebe 5b49 ad3e 8137 a6be c035 d63e
00000340: d46b 85bd b0ef 6cbe 9cdd 11be 7a47 303e
00000350: 8202 2b3e ed35 dc3e c428 c23d 3bd0 c13e
00000360: 3237 003e b399 7abe c6e7 acbe 7aaa 333e
00000370: 3313 c23e 0fe0 99be 00cf efbc f070 82be
00000380: f6ec 6cbe 300b bbbc a7a3 37bf 7007 0ebd
00000390: 80c0 053c 2ce3 febd 7f9e b93d d2d7 543e
000003a0: 0240 443e fc71 023e ecc8 d03c f699 b5be
000003b0: 286c 0b3d ecd1 88be 9e61 4bbe 8f4d 543e
000003c0: ca08 bbbe c6df 5b3e 2f1c 9bbe 9e9e 86be
000003d0: 7c3a cfbe faf2 7b3e 8a25 3a3e 82e5 0ebe
000003e0: 4aa7 2fbe f19c 533e fb81 cb3e 4931 a73e
000003f0: db51 9cbe c4ef 28be dc87 98be fb6a 573c

sequential/dense_2/MatMul f4 [1, 16]
-1.3544264 -0.04732362 0.6863088 -0.29343298 -0.18223691 -0.3787551 0.38514006 0.10171084
0.2927214 0.92774016 0.6440642 -0.46539018 -0.24792707 0.5162437 0.64190453 0.9046718
00000000: d85d adbf 6ad6 41bd efb1 2f3f d93c 96be
00000010: 509c 3abe 30ec c1be 1431 c53e c64d d03d
00000020: 94df 953e 6180 6d3f 64e1 243f 9f47 eebe
00000030: 98e0 7dbe 8c28 043f db53 243f 9298 673f
